data.pth (torch, 5015 bytes, 6 tensors)

l1.weight f4 [8, 54]
00000000: 0fd7 dfbd 8cac 013f 926e c63e 413c 94bd
00000010: 277c ba3e 3a2f 99be 1afe 013f 9aaa c03e
00000020: 3565 d83e f6b2 f23e a34c fc3d d475 4f3d
00000030: 6536 163f 1a7c ca3e 2ffc f03e cf96 11be
00000040: 34d8 3a3d ef2e 99be d949 a13e 181b a1bd
00000050: 91a7 3cbe 8fe5 8ebd 16cf cabd d5d3 9bbe
00000060: 8941 07be 632e 63be 4103 063f c238 e73e
00000070: 6947 4f3e a5a5 913e 46a0 86be adaf f23e
00000080: 1a70 40be 288d 043f af0a 093f 2199 15be
00000090: c9ea 403e b37f 2b3f d8a5 033f afdd f53e
000000a0: 093e a0be e943 c23e 8786 623e 9944 963e
000000b0: c15a 003f 2560 fa3e b6c6 02bf c416 ccbb
000000c0: 1b68 b93e 32d8 e03e bd28 61be 2113 bf3e
000000d0: aed6 df3e a6ed fc3e e5d4 4bbe ce87 0b3f
000000e0: 58b2 113d bff4 133f 5cfe 0f3f f202 23bf
000000f0: 5821 e03d fd74 91be 4a6a bc3d 302e 47bd
00000100: 8b75 f33e 366e 0a3f 316a fc3e e219 293f
00000110: 3255 163f be79 a33e b31e bf3e 8c89 27bf
00000120: fb5d c6bd 52d3 553f a7be 36be 172f 023f
00000130: 15e3 0f3f 5678 7a3f d660 cb3e afcb dd3e
00000140: e8ac c9bd 8982 063f 46c5 26bd 10ce d13e
00000150: 0a7a 9cbe ceb4 253f 5f48 a0be 41a6 49bd
00000160: 1b7e 213f 6f2d 0a3f ef35 09be 5629 c73d
00000170: 4722 3f3e 1322 d73d fce6 dbbe ae51 ab3c
00000180: 9b56 043f de5f 213f 1796 0a3f 5956 333f
00000190: 2f8c 27bf f3cc 8dbe 8e6d de3e 9dfe 2dbe
000001a0: b097 c83e d556 0ebd e65f d23d 5929 a53d
000001b0: d7b8 113f a961 743e 8955 bf3e 0114 1d3e
000001c0: 90be ba3d 111c cebe 89bd c43e b576 f73e
000001d0: c392 033f 83c9 e83e 9bbd a5bc fd20 45be
000001e0: 3942 703c fd40 4dbe c92c 603e e69f e2bd
000001f0: f76d fcb9 9874 cbbe 6ac0 3ebe a8ad 44be
00000200: 0090 0f3f 76d0 e0bd 4c01 cbbd 1d8a 9fbe
00000210: 439e 813e 1ac2 fabc 3990 3cbe 8acf 0e3e
00000220: 2875 24bd 78d3 4f3d 0cf7 57be 1ead 5ebd
00000230: e5ba 773e 955e cf3e 24f7 be3e 7208 34be
00000240: 7e06 9cbd 3574 053f cce6 b43e 642d de3e
00000250: 088f b0be 2ba0 debe d8a1 44be 70a2 693e
00000260: a6d7 b53e 3065 eb3e 8576 843f a091 b63e
00000270: 1332 7d3d 7671 afbe 3f0b 4bbe a454 d0be
00000280: e1c7 b63e 3d75 b83e 84b1 44be 2f29 013f
00000290: b3b3 f53e 96a1 4abd cc93 123e 5331 45be
000002a0: cc38 c63e fc83 873e 2590 f43e 2edc 2a3e
000002b0: 0ee5 0fbd e296 5fbe 5948 f43e 43e0 c7bd
000002c0: 9f7c a93e 923b 9fbe fac6 d4bd 4182 45be
000002d0: 91ba 323e ed76 0fbe 6116 ab3d 2672 9bbd
000002e0: 6cce afbd 836c cdbe 4e62 9f3e c69f acbd
000002f0: f01a 9e3e da4c 093f d485 d13e 229e 453e
00000300: f16f 65be 15f2 53bc 5a8a 92bc 1f46 f73e
00000310: 8731 023f 09e3 63be e783 ca3e 8f7e b43e
00000320: 8ee3 1b3f 2326 033f 5ae0 babe 6f25 a03e
00000330: e09b 1c3d 1d43 b53e 57ae a03e a5d2 173f
00000340: 637a fabe 7752 afbd 29b8 053e 493a 9f3e
00000350: b9d7 5bbe 89ff 673e 1992 0b3f dc3c cb3e
00000360: c83b d23e ce52 5cbe dbea ea3e bd2c b43e
00000370: a890 903e f05c 0c3f e005 143e 49f1 d13e
00000380: 4a70 dd3d b252 933e 80b4 ee3e 59e3 a7be
00000390: a687 09be 4a4d d1be 0f38 48be 27dc 88be
000003a0: 66a2 c23e 6afd f83e 479e d6bd 5166 003f
000003b0: 8ec4 b13e a870 033f 3220 db3e 5fc9 3c3e
000003c0: fe82 143d 7537 033f 3197 94bd 78fb cdbe
000003d0: ff59 6bbd 886b 07bf e8c6 b73e dde8 fcbe
000003e0: 25af bc3e 4da0 ea3e 510d 86be 8bd9 21be
000003f0: 8d18 9cbd 5484 d0bd 5749 b83d 5657 2e3e
-0.10929691 0.5065391 0.38756233 -0.07238055 0.36422846 -0.29918844 0.50778353 0.3763016
0.42264715 0.4740216 0.12319305 0.05064948 0.5867675 0.39547807 0.470674 -0.14217685
0.045616344 -0.2991862 0.31501654 -0.07866496 -0.18423297 -0.069773786 -0.0990278 -0.30435053
-0.13208593 -0.22185664 0.52348715 0.4516049 0.20242085 0.2844669 -0.26294154 0.47399655
-0.18792763 0.5177789 0.53531927 -0.14609195 0.18839563 0.6699173 0.5142493 0.48020694
-0.3129733 0.37942436 0.2212163 0.2934921 0.5013848 0.48901477 -0.5108446 -0.0062283
0.3621224 0.43914944 -0.21988197 0.37319282 0.43718475 0.4940006 -0.19905432 0.54504097
0.035570472 0.5779533 0.56247497 -0.6367637 0.1094386 -0.28409567 0.091999605 -0.048628032
0.47550616 0.5407442 0.49299768 0.6605512 0.5872375 0.3192882 0.3732811 -0.65444255
-0.09685894 0.83525574 -0.17846166 0.50853103 0.56205875 0.9783987 0.39722317 0.4331946
-0.098474324 0.5254293 -0.04071548 0.40977526 -0.30561858 0.6472901 -0.31305215 -0.049230818
0.63083047 0.53975576 -0.1339948 0.09724681 0.1866542 0.10504546 -0.42949665 0.020912971
0.5169465 0.63036907 0.5413527 0.7005363 -0.6544828 -0.27695426 0.4344296 -0.16991659
0.39178228 -0.03475078 0.102721974 0.08064527 0.5692267 0.2386538 0.37369946 0.15339662
0.09118378 -0.40255788 0.38425854 0.48332754 0.51395816 0.4546624 -0.020232012 -0.19250865
0.014664226 -0.20044322 0.21892084 -0.110656545 -0.00048147116 -0.3973739 -0.18628088 -0.1920687
0.560791 -0.10977261 -0.09912357 -0.3116006 0.25316057 -0.030610133 -0.18414392 0.13946357
-0.04015079 0.05073878 -0.21090335 -0.054364316 0.24192388 0.40501848 0.37297928 -0.17581347
-0.07618426 0.5213044 0.35332334 0.43394005 -0.34484124 -0.43481573 -0.19202363 0.22815871
0.3551609 0.45975637 1.0348669 0.35657978 0.061815333 -0.3426625 -0.19828509 -0.40689576
0.3569937 0.36026946 -0.19208342 0.50453466 0.47988662 -0.049470507 0.14314193 -0.19257097
0.38715208 0.26467884 0.47766224 0.16685554 -0.035130553 -0.21834901 0.47711447 -0.097595714
0.3310289 -0.31100136 -0.10389514 -0.19287969 0.17453982 -0.1401021 0.08353878 -0.075901315
-0.08584294 -0.4012185 0.31129688 -0.08428912 0.30879927 0.5363289 0.40922415 0.19298604
-0.22405984 -0.012936135 -0.017888237 0.48295686 0.5085682 -0.22254576 0.39553759 0.35252807
0.60894096 0.51230067 -0.36499292 0.3127856 0.03823459 0.35402766 0.3138301 0.59305793
-0.489215 -0.08560651 0.13058533 0.31099156 -0.2146901 0.22656073 0.545198 0.3969487
0.41061234 -0.21515962 0.45882306 0.35190383 0.28235364 0.5482931 0.14455366 0.41004398
0.10812433 0.2877403 0.46622086 -0.3279064 -0.13430652 -0.4087928 -0.19552635 -0.26730463
0.38014525 0.4863084 -0.10479408 0.5015612 0.34720272 0.51343775 0.42798 0.18436192
0.036257736 0.51256496 -0.072554 -0.40230918 -0.057458874 -0.52898455 0.3589394 -0.4939641
0.36852375 0.45825425 -0.26182035 -0.15805642 -0.0762187 -0.101814896 0.089983635 0.17025504

l1.bias f4 [8]
00000000: 0f24 993e bc8c 273f 0217 ce3e e31d 453e
00000010: 4df7 753f 8c3e 5e3f 0c3d 1d3f 9faf 363f
0.29910323 0.6544912 0.4025193 0.19249682 0.96080476 0.8681419 0.61421275 0.71361727

l2.weight f4 [8, 8]
00000000: 0229 733f 5692 283f 8155 d7be 58c1 633f
00000010: ae23 7abf e4d0 1ebf 1ae5 953f 0739 b33e
00000020: 0169 d1be 701f 8ebf 206d 893e 6825 2dbf
00000030: 6286 4e3f dc3e 843f 095b 483f 491a b1be
00000040: 0bf3 cf3e be0c e8be 31b3 a13e ea02 dc3d
00000050: 13e8 9e3f 01e1 903f 15c8 503f a285 2bbf
00000060: 64fd 7e3f b61b 943f c145 963f 81f9 563f
00000070: e062 8f3e e328 873c 536f 8bbf b16d 223e
00000080: 7805 edbe aede 15bf 9719 8e3f 887e 3cbf
00000090: cef5 283f 5b42 0e3f 41b5 60bf 6c63 2ebf
000000a0: d736 aabe 97a2 3fbe 5a5b 043f 5a2f 9fbe
000000b0: 4861 873f c1d3 8f3f c282 90be 4fda d53e
000000c0: 3849 eebc 83d8 a93d 5393 88be f043 55bd
000000d0: bfa1 0cbe bd7d 9dbe 702e 483e e771 8abe
000000e0: 457d 0ebf dd5d 4c3f 57ac 7dbf aabb 50bf
000000f0: 8f64 493f 44ee 353e 8e58 5e3f 6e88 b33f
0.9498445 0.6584829 -0.42057422 0.88966894 -0.9771069 -0.6203749 1.1710541 0.35004446
-0.40900424 -1.1103344 0.26841068 -0.676352 0.806738 1.0331683 0.7826391 -0.34590366
0.40615115 -0.45322222 0.31582025 0.10742743 1.2414573 1.1318666 0.815553 -0.6700078
0.99605393 1.1570957 1.1740037 0.8397446 0.28005123 0.016498988 -1.0893348 0.15862156
-0.46293235 -0.5854291 1.1101559 -0.7363057 0.6600007 0.5557 -0.8777657 -0.68120456
-0.33244964 -0.18714367 0.5170189 -0.31090814 1.0576563 1.1236497 -0.2822476 0.4176812
-0.029087648 0.082932495 -0.266749 -0.052066743 -0.13733576 -0.30759993 0.19548965 -0.27040026
-0.55659896 0.79830724 -0.99091095 -0.8153635 0.78669065 0.17766672 0.86853874 1.402601

l2.bias f4 [8]
00000000: 744d be3e 19d3 f43c ac96 d33e 70cc 303f
00000010: 2826 61be 041f 0f3f 3a63 8bbe a163 433f
0.37168467 0.029885815 0.4132589 0.69061947 -0.21987212 0.559067 -0.2722414 0.76323897

l3.weight f4 [7, 8]
00000000: afef d73e db2d 21bf 4204 8bbf f53f d5bd
00000010: 4680 72be b9ce 49bf e8f5 c9bd ac79 353f
00000020: d658 053f 90dc d6be 7cfb 8bbf bf72 423f
00000030: c7f4 01be 48e2 fcbe c448 9e3e 36c5 70bf
00000040: 78f6 59bf 192d 293f c9d8 d43e 12af a2bf
00000050: 350e c2bf 4332 ef3e 42eb babb 594a 9e3e
00000060: 1272 84bf 9a90 bfbf 2b6c 0fbe 843b 8d3e
00000070: 542a 63bf 9439 153f f0c8 a6bd ec41 623f
00000080: e257 363f e078 5abf aeeb 313f efba 54be
00000090: a42c c3be e918 86bf 0482 1cbe ecf1 b6be
000000a0: d0f3 dcbe 3ea3 89bf 06ac 203f fda5 ff3e
000000b0: eaa8 97bf d57c b63e f23d d8bd 36f8 a6bf
000000c0: 1d4c 17bf 43b3 0d3f 6f4f 013e 8da2 b2be
000000d0: d4ef 803f 7e8c 593e 7936 583e 33e8 1fbf
0.42175052 -0.62960595 -1.0860674 -0.104125895 -0.23681745 -0.7883106 -0.09861356 0.7088878
0.5208868 -0.4196515 -1.0936122 0.7595634 -0.12691031 -0.4939139 0.3091489 -0.9405092
-0.85141706 0.6608444 0.41571644 -1.2709677 -1.5160586 0.46718034 -0.0057043144 0.30916098
-1.0347311 -1.4966004 -0.14006107 0.2758447 -0.8873646 0.5829098 -0.081437945 0.8838184
0.7122785 -0.8534069 0.69500244 -0.20774435 -0.38119996 -1.0476352 -0.15283972 -0.35731447
-0.43154764 -1.0752943 0.62762487 0.49931327 -1.1848423 0.35642114 -0.1055869 -1.3044498
-0.59100515 0.55351657 0.12627958 -0.3488964 1.007319 0.21245 0.2111453 -0.6246368

l3.bias f4 [7]
00000000: 1fff 253d e0fd 813e 3ff1 223e 05df 493d
00000010: 59f2 babe b677 ce3e 45ba f93d
0.040526506 0.25389004 0.1591234 0.049284954 -0.36513022 0.40325707 0.12193731
